ex-2/my_iris_model.pt (torch, 3076 bytes, 6 tensors)

fc1.weight f4 [8, 4]
0	0x3df83930	0.12120283
1	0xbee08da4	-0.43858063
2	0xbeec860c	-0.4619602
3	0xbd334fa6	-0.04377713
4	0xbec62908	-0.3870318
5	0x3da27df0	0.07934177
6	0x3e17a160	0.14807653
7	0xbef444da	-0.4770878
8	0x3ec97e2b	0.3935407
9	0xbb0a88de	-0.0021138708
10	0x3f10d004	0.56567407
11	0xbd2a78b0	-0.041619003
12	0x3f451fef	0.7700185
13	0x3f0a20eb	0.5395648
14	0xbefbb4ad	-0.49161282
15	0xbfb2653f	-1.3937148
16	0x3eb16298	0.34645534
17	0xbf098532	-0.53718865
18	0x3f5ea5fe	0.86972034
19	0x3f7c1771	0.9847327
20	0x3f0019ed	0.5003956
21	0x3f5a76ef	0.8533773
22	0xbf473a02	-0.7782289
23	0xbf947dfe	-1.160095
24	0x3e2898a8	0.16464484
25	0xbde40d70	-0.111353755
26	0xbed7baec	-0.42134798
27	0xbeb5f058	-0.3553493
28	0xbea3649c	-0.31912696
29	0x3e136990	0.14395738
30	0xbeb2ff38	-0.3496034
31	0x3e6982e4	0.22803837

fc1.bias f4 [8]
0	0x3e3e63e4	0.18592793
1	0xbe4fbc1c	-0.20286602
2	0x3f61c7de	0.881956
3	0x3f7b72a9	0.9822183
4	0xbeb99347	-0.36245176
5	0x3f710b91	0.94158274
6	0xbe9fdcea	-0.31223232
7	0x3ec190f0	0.3780589

fc2.weight f4 [9, 8]
0	0xbe5ea13a	-0.2174119
1	0x3da82c20	0.08211541
2	0x3dd486d4	0.10377279
3	0xbeb4d6a5	-0.3532001
4	0xbed63f91	-0.41845372
5	0x3dcd2394	0.100165516
6	0xbeb2e58a	-0.3494075
7	0xbe871c11	-0.263886
8	0x3e3106fb	0.17287819
9	0xbdf2bfc4	-0.11852983
10	0x3f5e63c1	0.8687096
11	0xbdb3cc60	-0.08779216
12	0x3f1a6ceb	0.60322446
13	0xbf44c842	-0.7686807
14	0x3d8f2e40	0.06991243
15	0xbea73170	-0.32654905
16	0xbeb58546	-0.35453242
17	0xbe8b128d	-0.2716259
18	0x3e022f81	0.12713434
19	0xbf1c75b4	-0.611171
20	0x3f2b5295	0.66922885
21	0xbf61f50a	-0.88264525
22	0x3e9c0a27	0.30476496
23	0xbe572c89	-0.21013083
24	0xbd96e8ae	-0.07368599
25	0xbd7892b8	-0.060686797
26	0x3e3558f4	0.17709714
27	0xbd2b1317	-0.041766252
28	0xbe079bd9	-0.13243045
29	0xbdf29232	-0.11844291
30	0xbe99b099	-0.30017546
31	0xbde6f0f4	-0.11276427
32	0x3e01bb5d	0.1266913
33	0xbe43c6a5	-0.19118746
34	0x3dd1639c	0.10224077
35	0xbf49025f	-0.78519243
36	0x3f4df58d	0.80452806
37	0xbede2ab9	-0.4339197
38	0xbe5049e8	-0.20340693
39	0x3c3a9f00	0.011390448
40	0xbca147a0	-0.019687474
41	0x3d806150	0.06268561
42	0xbe6b4676	-0.22976097
43	0xbe61de4c	-0.22057456
44	0xbd54b528	-0.051930577
45	0xbe8b2bbe	-0.2718181
46	0x3d214740	0.03937459
47	0xbe391707	-0.1807519
48	0xbe83af01	-0.25719455
49	0xbc8eea50	-0.017445713
50	0x3eb3a6cf	0.35088202
51	0x3d5ef40a	0.054431953
52	0x3f5622bd	0.83646756
53	0xbf25a100	-0.6469879
54	0xbde24202	-0.11047746
55	0xbd7fb838	-0.062431544
56	0xbe04fce0	-0.12987089
57	0xbeaf947c	-0.34292972
58	0x3f23df3d	0.6401251
59	0x3f13b69c	0.57700515
60	0xbe429dd5	-0.1900552
61	0x3f8a2629	1.0792896
62	0xbeb46620	-0.35234165
63	0x3e9ffa81	0.31245807
64	0xbeacd317	-0.337548
65	0xbe552c37	-0.20817648
66	0x3dfb5308	0.12271696
67	0xbe2424fb	-0.16029732
68	0xbe35360e	-0.17696401
69	0xbe9f3d8f	-0.31101653
70	0x3ddd306c	0.10800251
71	0x3e91ee49	0.2850211

fc2.bias f4 [9]
0	0x3c93cc0e	0.018041637
1	0x3f3850e8	0.71998453
2	0xbf5fd4ff	-0.8743438
3	0xbee30d55	-0.4434611
4	0xbf4600e1	-0.7734509
5	0xbd12de08	-0.035856277
6	0xbe16c97d	-0.14725299
7	0x3f2dcd75	0.6789163
8	0xbceb23b1	-0.028703542

out.weight f4 [3, 9]
0	0xbe0e1896	-0.13876566
1	0xbf7fe0c3	-0.99952334
2	0xbeda9476	-0.42691392
3	0xbd19305d	-0.03739964
4	0xbf850d90	-1.0394764
5	0x3e681a42	0.22666267
6	0xbf81947e	-1.0123441
7	0x3f7ad8db	0.97987145
8	0x3e9497dd	0.29022112
9	0x3dcb2519	0.09919185
10	0x3f083c4c	0.53217006
11	0xbf8f0f4d	-1.1176544
12	0xbe09ce88	-0.13457692
13	0xbf3558c5	-0.70838577
14	0x3e8b2fb1	0.27184823
15	0x3ec60195	0.38673082
16	0x3e0ed7f1	0.13949563
17	0x3e5255ad	0.20540495
18	0xbe461765	-0.19344862
19	0x3e7131d1	0.2355416
20	0x3f4c216b	0.7973849
21	0xbd18b3b6	-0.03728076
22	0x3f4feae9	0.8121782
23	0xbea4d2e6	-0.32192153
24	0x3f457d96	0.77144754
25	0xbf88379d	-1.0641972
26	0xbdb3c3c5	-0.087775744

out.bias f4 [3]
0	0x3f1ba256	0.6079458
1	0xbda61645	-0.08109716
2	0xbf4ca126	-0.79933393
